code/deepSDFVAD/runss/3_2_deepsdf_overfit/latent_best.ckpt (torch, 1835 bytes, 1 tensors)

weight f4 [1, 256]
000000 93 cb 5e 3d a9 75 ae b9 a6 04 45 b9 5b 8c bc bc
       0.054393362 -0.0003327553 -0.00018789116 -0.023016145
000010 c1 84 3f bd b4 46 d9 b9 1d 64 ff bc 8d 5a 51 39
       -0.046757463 -0.00041442143 -0.031175667 0.00019965526
000020 3f 68 f7 bc 84 06 89 3c f1 d1 a0 3c ea f9 e3 bc
       -0.030201076 0.01672674 0.019631358 -0.02782913
000030 87 09 85 bd 67 da be 3c 06 94 25 b9 ad 44 13 be
       -0.06495958 0.023297502 -0.00015790769 -0.14381666
000040 df 6e 0a bc 7e 5b aa bd 6f 31 7c bc 1d c0 14 bc
       -0.008449285 -0.08318232 -0.015392645 -0.0090790065
000050 26 23 3c bd 1c e9 97 bc da 69 14 bd ff f5 ee 3b
       -0.045931958 -0.018543772 -0.03623376 0.0072925086
000060 7b ac 94 3d 3f 02 46 3d 1b 29 fd b8 b7 25 87 3c
       0.072594605 0.048341986 -0.000120716366 0.016497476
000070 8a 93 a7 39 7b 5f f4 bc f6 95 45 3b 77 92 73 bc
       0.00031962647 -0.029830685 0.0030149198 -0.014866463
000080 b3 7a 46 bc 47 1c 12 bc ed 96 e4 bc 49 57 1c bd
       -0.012114215 -0.008917875 -0.027903998 -0.03816918
000090 40 21 a3 bc c5 99 19 3c 83 26 0f bc 06 25 83 39
       -0.019913316 0.00937504 -0.008737209 0.00025013852
0000a0 94 e2 69 bd c4 cc 15 bd 80 fc 0b 3c aa b7 65 3d
       -0.057100847 -0.036572233 0.008544087 0.05608336
0000b0 c2 cf 67 ba 1a 41 12 3a 71 84 f2 3a 28 c9 06 3d
       -0.0008842909 0.0005579159 0.0018502605 0.03290668
0000c0 7c 66 81 b9 8e 40 00 bd cc 13 4c bc ef f9 78 bb
       -0.00024681154 -0.031311564 -0.012455892 -0.003799077
0000d0 8c 6e 61 bc 5c 79 da b9 46 6f 95 3c 0c 91 6f bd
       -0.013759267 -0.0004167062 0.018241536 -0.058487937
0000e0 bf c1 26 bd 40 df 83 38 79 af 61 3c 80 93 4b bd
       -0.040712114 6.28815e-05 0.013774746 -0.049701214
0000f0 9b e7 19 bd 86 d4 73 b8 31 8e 10 3b 9b 95 6a bb
       -0.03757439 -5.8133643e-05 0.002205741 -0.0035794738
000100 b6 89 b9 bc d4 2a 29 bd 9c 5b 86 3b eb 2a 88 bb
       -0.022648674 -0.04130061 0.004100276 -0.004155507
000110 ea dc 7c 3c 21 e6 9e bc 1c ce 9a 3d 41 65 ef 3c
       0.015433529 -0.019396843 0.075588435 0.029223086
000120 48 fd 21 bb 8b 15 29 bc df a8 bf 3d 6a c6 2c 3d
       -0.0024717618 -0.010320078 0.093583815 0.04218141
000130 74 04 42 3d dd 61 d6 bc 6b 4f c6 3d 3e 8e 8a bd
       0.047367528 -0.026169712 0.096831165 -0.06765412
000140 9e cb 28 bd 3c fe 77 bd f8 3f 0a 3d f5 d3 b2 bc
       -0.04120981 -0.06054519 0.03375241 -0.021829585
000150 d9 e8 07 3d 6c d2 15 b6 b9 ba 73 ba 6e 1d 66 bc
       0.033181045 -2.2325212e-06 -0.0009297538 -0.0140451025
000160 2a 87 3e 3d 3a e4 b3 bc 28 4a c3 39 9b c6 c6 39
       0.04651562 -0.021959413 0.0003724855 0.00037913476
000170 db 18 bb bb 92 cb 18 3d 93 3a b7 bd 1b ad 5d bd
       -0.00570975 0.037303515 -0.08946719 -0.054120164
000180 94 e5 15 3d cd 02 96 3b c3 f7 7b 3d dd 56 63 3c
       0.036595896 0.0045779706 0.06151558 0.01387569
000190 38 34 dc ba 6e 9f 5d 3a 40 47 a5 3c 26 07 c8 3c
       -0.001680023 0.0008454238 0.020175576 0.024417471
0001a0 91 62 93 ba aa 86 27 3b f2 f1 f2 3b e3 f8 69 3c
       -0.0011244585 0.0025562444 0.007414096 0.014280531
0001b0 97 a2 d7 bc cb 07 3c bd b1 51 d0 bc 37 fc c1 3d
       -0.026322646 -0.04590587 -0.025429578 0.09471934
0001c0 ef 7a 1e bc f5 82 e4 3c bc 85 72 3d ca 5e 2d bc
       -0.009672864 0.027894476 0.05920957 -0.0105816815
0001d0 bb 0a c7 bd 0a ea e1 bc 0f d2 f6 3c db c4 24 bd
       -0.097188435 -0.027577419 0.03012946 -0.0402268
0001e0 71 8c c0 bc 2f 61 10 3c b8 f0 07 3d d2 4d 62 3d
       -0.023504468 0.008812233 0.03318855 0.055249996
0001f0 39 3b 02 39 0f df e7 3b 43 b1 a7 bb 40 47 63 3c
       0.00012419828 0.007076151 -0.005117567 0.013871968
000200 22 77 27 b8 7b 50 f8 3b 78 d9 f4 3c 10 c4 8e bd
       -3.9926854e-05 0.0075779534 0.029888853 -0.0697099
000210 cb 2c 3a 3a bf 18 ba 3a 4f da 48 ba d0 a2 62 bc
       0.00071020116 0.0014198049 -0.0007661925 -0.013832763
000220 00 7e 81 39 42 a6 72 3c 25 a3 a2 3d 26 7f 23 3d
       0.00024698675 0.014810147 0.079412736 0.03991618
000230 36 3d 02 3b f1 46 9b bc 93 63 69 38 64 32 8a 3d
       0.001987291 -0.018954726 5.5644265e-05 0.067478925
000240 43 52 51 39 45 ae e2 3c 65 b6 a7 3d 2f 95 e1 b9
       0.00019962438 0.027670989 0.08189086 -0.00043026495
000250 7b 69 88 b8 15 c2 9a bd 17 0f 30 3b 3e 79 bd bd
       -6.5046326e-05 -0.075565495 0.0026864463 -0.09251641
000260 18 3b 3e 3d 79 fd 04 39 73 ae 82 bd ed f1 c3 39
       0.046443075 0.00012682927 -0.0638093 0.00037373547
000270 7c e5 46 3d 78 96 55 3d 95 55 c5 3b 5e c9 4b 3d
       0.048558697 0.05214545 0.006022165 0.049752586
000280 2a 72 4b 3b ce dc 25 3c fb 6b f4 3d af f9 28 bd
       0.003104339 0.010123445 0.11934658 -0.04125374
000290 b0 a1 07 bd ed 19 91 3c 3e cb 98 bd 30 86 aa 39
       -0.03311318 0.017712558 -0.0746064 0.00032524904
0002a0 f7 16 f3 39 20 b4 74 b8 39 11 e8 3a 78 3c 1b bd
       0.00046365682 -5.8341888e-05 0.0017705328 -0.037899464
0002b0 fc 47 f3 bc 0b 9d 5e bc 02 59 40 3c dd cc 50 bd
       -0.02969741 -0.013587247 0.011739971 -0.050976623
0002c0 8a 75 37 3c 8d 89 9d bb 6a 85 86 3d 44 91 ee bc
       0.011197457 -0.004807657 0.065684155 -0.029122002
0002d0 f0 fb 80 3c b0 78 3d 3c 11 ae 05 bd f0 c9 17 bc
       0.015745133 0.011564419 -0.032636706 -0.009264454
0002e0 41 ac 81 bd e0 7c f3 ba dc 4f 96 3d 9a cc 6c bd
       -0.06331683 -0.0018576644 0.07339451 -0.05781231
0002f0 0f 40 2c bd 8e 97 ce 3c ec 6d 14 3b 5c 02 7d bd
       -0.04205328 0.025218751 0.0022648526 -0.06176983
000300 c3 4f 21 bc 6d a0 69 3d 8b 22 00 bb f8 69 c9 bc
       -0.009845677 0.05703776 -0.001955184 -0.024586663
000310 69 76 06 b9 8c 7d 19 3d b6 b4 4a bd a3 0c e3 bc
       -0.00012823347 0.037473246 -0.049488746 -0.027715987
000320 02 87 ce bc 09 50 e7 39 f6 5e 0c bc 98 e8 84 bc
       -0.025210861 0.00044119384 -0.008567562 -0.01622419
000330 93 b3 eb bd 0c b5 3a b9 72 ed 9c bc a9 2a 21 39
       -0.115088604 -0.00017805788 -0.019156191 0.00015370049
000340 22 5d c9 3a 39 68 b6 b9 3b 4c 2a 3c c4 6d ba bc
       0.0015362839 -0.00034791397 0.010394151 -0.022757418
000350 6d 31 4f 39 06 01 92 3d f7 64 04 bd 52 f4 0d bd
       0.00019759471 0.071291015 -0.03232285 -0.03465683
000360 69 ea 8e bd 93 da 9b ba 6f c4 04 3d e1 df f5 3c
       -0.06978304 -0.0011890702 0.032413896 0.03001398
000370 b2 bb 6c b9 0e e4 88 bc 7f 62 98 b7 11 53 96 3c
       -0.00022576636 -0.016710307 -1.8165678e-05 0.018350156
000380 50 4a 47 bd b3 76 8b bb 47 2f b5 3c 26 58 8b bd
       -0.048654854 -0.0042560934 0.02211727 -0.06803922
000390 76 c6 fc 39 c2 ed f8 bb 7b 34 5c bc ce 4e 49 bd
       0.0004821305 -0.0075967023 -0.013440247 -0.04914742
0003a0 00 a6 de b9 71 99 8c 3d 62 ce 5e bc a6 18 07 bd
       -0.0004246682 0.06865204 -0.01359901 -0.03298249
0003b0 3a 6e bd 38 5a 9e c9 bd d1 3b 4a 3c 58 32 d3 bd
       9.0327536e-05 -0.09844656 0.012343363 -0.10312337
0003c0 c6 98 aa 39 79 8c b5 3b c0 fb 8f 3b bb 7c 53 3c
       0.00032538752 0.0055404273 0.0043940246 0.012908156
0003d0 7e 21 a3 b9 83 61 60 bd 53 0f 2b 3c 2e 63 e8 3d
       -0.00031114736 -0.054780494 0.010440665 0.11347042
0003e0 97 45 98 3c 8f db ba 3a 8d d7 c3 3c 5c 6b 89 3d
       0.01858787 0.0014256107 0.023906494 0.0670993
0003f0 77 2e 57 3d 2d 7b 14 3a 31 91 f4 bc ad ef a0 bc
       0.052534547 0.00056641066 -0.029854389 -0.019645536
