code/deepSDF/runs/3_2_deepsdf_overfit/latent_best.ckpt (torch, 1835 bytes, 1 tensors)

weight f4 [1, 256]
0.008975555 0.000302238 0.0048190663 -0.0041953507 0.059157927 -0.05442303 -0.00061458955 -0.017101513
0.03181238 0.00060674775 -0.024248261 -0.024187865 5.156983e-05 -0.08401438 -0.05395215 -7.353291e-05
0.0013202777 -0.00034963727 0.004092349 0.019642925 0.024148243 0.00020874805 0.035017397 0.0004251922
-0.008584986 -0.024665803 0.034205765 0.003294247 -0.04772781 0.07231372 -0.051088292 0.010416975
-0.002925099 -0.0072653824 0.06763057 -0.10385775 -0.023639359 -0.0005764046 -0.00028009928 0.078359246
-0.028332716 -0.00015812244 0.013101979 0.0004759252 0.07808735 -0.01080698 -0.054514695 0.00058111903
-0.029712496 0.018324414 -0.025993146 0.049325507 -0.055481166 0.045170035 0.0009870088 0.04061802
0.03732905 0.028209392 -0.08111587 -0.012078583 0.12347693 -0.021896066 0.0003379217 -0.005872186
0.008101566 -0.0027503935 0.026355939 0.009920122 0.0012271641 0.041765682 -0.0030248351 -0.033212867
0.060792256 0.00066530413 0.049825866 0.0026763564 -0.030465718 0.06344383 0.014494178 0.00465463
-0.022437789 -0.007524177 -0.010713445 2.6428945e-05 -0.00033434184 -0.065904684 -0.012390334 0.027431674
0.06728442 0.10104737 -0.0005530956 0.025802359 0.014628858 0.05579103 0.0034637358 -0.041819755
0.0047829445 0.055697314 -0.037391655 -0.00028801247 0.017317438 -0.006643893 0.043306842 -0.00044463118
-0.001212237 0.10360532 0.07390016 0.041861754 0.0149104865 -0.010981065 0.00087091944 -0.04615213
0.013970327 -0.00018079231 0.026653815 0.09885287 -0.0035109043 0.07018191 0.07569711 0.025886456
0.11218282 -0.09158901 -0.065386444 0.020922355 -0.04521125 -0.04847148 -0.13290574 0.025003137
-0.03773437 0.08567489 0.08395939 -0.013531101 0.0005014058 -9.5464005e-05 0.07011595 -0.027250687
0.044776805 0.044712882 -0.05503193 0.0022278663 0.008344591 -0.046404034 -0.054400276 -0.08321467
-0.00053080474 0.0011204256 0.10363669 0.0758622 -0.07896978 -0.02991132 -0.006537193 -0.14752087
-0.017124001 0.03552959 0.1066832 0.08011008 0.052709095 -0.08041809 -0.00011274533 -0.06937666
-0.0075956387 -0.0020819795 -0.03830882 -0.0028262686 0.015755245 5.7522375e-05 -0.019064913 -0.061825864
0.17624414 -0.024589641 -0.08905746 0.00219354 0.007760876 0.0016150064 0.044396814 -4.016914e-06
-0.08779897 -0.012430383 -0.006894833 -0.056734502 0.06839433 0.061263166 -0.092412 -0.05825659
0.035258945 -0.016365316 0.047239356 -0.036822185 -0.08236476 0.017211093 0.061125357 -0.026452802
0.0002770728 0.040148266 0.0472446 0.038155083 -0.014902838 0.00048594672 0.0003687616 -0.014544966
-0.037440877 0.06252367 0.03307536 0.04223487 -0.019178027 0.0015678175 -0.0032635597 0.00021431336
-0.010374062 -0.0001743287 -0.053925082 -0.0004918742 0.00067020126 0.028489808 0.1369709 0.008179957
-0.0002101159 0.07052084 -0.019249462 -0.0008664247 -0.046977267 0.0517229 0.006771921 0.03753836
0.014324316 -0.00022056668 0.047792755 0.071933515 9.956688e-05 0.019066215 0.08765678 -0.030372893
0.009126994 0.03503084 0.025493216 0.050199542 -0.010621043 0.00064797816 0.0010363159 0.012548898
0.0067060753 0.00030858276 -0.030613959 0.02648523 0.058233723 -0.006918292 0.1309131 0.0062319017
-0.00081873196 -0.00021742405 -0.013903385 -0.000418184 -0.056776952 0.015490262 0.034089953 0.06974966
00000000: 350e 133c b375 9e39 42e9 9d3b 2779 89bb
00000010: 954f 723d afea 5ebd 681c 21ba 7918 8cbc
00000020: b34d 023d 270e 1f3a 4aa4 c6bc a125 c6bc
00000030: af4c 5838 bb0f acbd eefc 5cbd ae35 9ab8
00000040: 2b0d ad3a 854f b7b9 1d19 863b 33ea a03c
00000050: 89d2 c53c 61e3 5a39 676e 0f3d 55ec de39
00000060: 0ba8 0cbc f00f cabc 581b 0c3d 4be4 573b
00000070: 3c7e 43bd 3719 943d f541 51bd f6ab 2a3c
00000080: 05b3 3fbb 7212 eebb e581 8a3d 5fb3 d4bd
00000090: 54a7 c1bc dc19 17ba 4ada 92b9 d07a a03d
000000a0: 031a e8bc abcd 25b9 afa9 563c 9985 f939
000000b0: 43ec 9f3d c20f 31bc cd4a 5fbd 3d56 183a
000000c0: 9f67 f3bc 151d 963c 94ef d4bc 8b09 4a3d
000000d0: 3840 63bd 3704 393d 855e 813a 155f 263d
000000e0: 59e6 183d 6217 e73c 1420 a6bd 40e5 45bc
000000f0: 79e1 fc3d 615f b3bc 152b b139 776b c0bb
00000100: 6ebc 043c f23f 34bb 69e8 d73c 0288 223c
00000110: cbd8 a03a 7e12 2b3d 503c 46bb 370a 08bd
00000120: 4d01 793d ce67 2e3a 3516 4c3d cf65 2f3b
00000130: 3e93 f9bc d7ee 813d fd78 6d3c de85 983b
00000140: 74cf b7bc 5f8d f6bb 7287 2fbc bab3 dd37
00000150: 9a4a afb9 09f9 86bd d400 4bbc 64b8 e03c
00000160: 6acc 893d ecf1 ce3d 9efd 10ba 785f d33c
00000170: e1ad 6f3c 2385 643d d8ff 623b 314b 2bbd
00000180: 3fba 9c3b de22 643d fe27 19bd 6100 97b9
00000190: 4ddd 8d3c 04b5 d9bb 8462 313d 631d e9b9
000001a0: ede3 9eba 072f d43d f858 973d 3b77 2b3d
000001b0: 1d4b 743c ede9 33bc 6a4e 643a 040a 3dbd
000001c0: cce3 643c 1193 3db9 1a59 da3c 6073 ca3d
000001d0: 3317 66bb 89bb 8f3d 1607 9b3d d50f d43c
000001e0: 1bc0 e53d 0593 bbbd 54e9 85bd 5c65 ab3c
000001f0: 6f2f 39bd 088a 46bd 7118 08be 61d3 cc3c
00000200: 5b8f 1abd 5176 af3d e7f2 ab3d 8db1 5dbc
00000210: c670 033a d933 c8b8 f498 8f3d d53c dfbc
00000220: e267 373d db24 373d 2969 61bd 6501 123b
00000230: c0b7 083c 2812 3ebd d3d2 5ebd 746c aabd
00000240: b425 0bba 3fdb 923a 793f d43d a45d 9b3d
00000250: e8ba a1bd 9608 f5bc f335 d6bb b60f 17be
00000260: a247 8cbc 7a87 113d b97c da3d c110 a43d
00000270: 7ee5 573d 3db2 a4bd b071 ecb8 5a15 8ebd
00000280: d6e4 f8bb d271 08bb b6e9 1cbd eb38 39bb
00000290: 2511 813c 2e44 7138 052e 9cbc 1e3d 7dbd
000002a0: 5879 343e 3770 c9bc c263 b6bd 7fc1 0f3b
000002b0: f24e fe3b 9fae d33a 6fd9 353d 07c9 86b6
000002c0: f2cf b3bd cea8 4bbc 0dee e1bb 7062 68bd
000002d0: 5412 8c3d 16ef 7a3d 8142 bdbd 769e 6ebd
000002e0: af6b 103d 8e10 86bc 0e7e 413d dcd2 16bd
000002f0: dbae a8bd 47fe 8c3c 955e 7a3d 8cb3 d8bc
00000300: 1544 9139 8272 243d 8e83 413d 8148 1c3d
00000310: 082b 74bc aac6 fe39 5856 c139 024e 6ebc
00000320: 9b5b 19bd 690c 803d 077a 073d 79fe 2c3d
00000330: 3d1b 9dbc 3a7f cd3a 72e1 55bb 4eb9 6039
00000340: f8f7 29bc 01cc 36b9 8ce0 5cbd 1ef1 00ba
00000350: 72b0 2f3a 7563 e93c 1a42 0c3e 3a05 063c
00000360: 8f52 5cb9 3b6d 903d 0cb1 9dbc c720 63ba
00000370: 3c6b 40bd 64db 533d fee6 dd3b d3c1 193d
00000380: 89b0 6a3c eb47 67b9 56c2 433d e151 933d
00000390: 90ce d038 c030 9c3c 6685 b33d 93d0 f8bc
000003a0: 6389 153c 807c 0f3d 26d7 d03c 099e 4d3d
000003b0: e203 2ebc 14dd 293a fed4 873a e599 4d3c
000003c0: a3be db3b 47c9 a139 20ca fabc 8ef7 d83c
000003d0: 7c86 6e3d d7b2 e2bb 150e 063e fb34 cc3b
000003e0: 2ca0 56ba 53fc 63b9 06cb 63bc b53f dbb9
000003f0: f38e 68bd deca 7d3c e8a1 0b3d e9d8 8e3d
